model_foro1training.pth (torch, 57623 bytes, 6 tensors)

ah0 f4 [100]
0	0x00000000	0.0
1	0x00000000	0.0
2	0x00000000	0.0
3	0x00000000	0.0
4	0x00000000	0.0
5	0x00000000	0.0
6	0x00000000	0.0
7	0x00000000	0.0
8	0x00000000	0.0
9	0x00000000	0.0
10	0x00000000	0.0
11	0x00000000	0.0
12	0x00000000	0.0
13	0x00000000	0.0
14	0x00000000	0.0
15	0x00000000	0.0
16	0x00000000	0.0
17	0x00000000	0.0
18	0x00000000	0.0
19	0x00000000	0.0
20	0x00000000	0.0
21	0x00000000	0.0
22	0x00000000	0.0
23	0x00000000	0.0
24	0x00000000	0.0
25	0x00000000	0.0
26	0x00000000	0.0
27	0x00000000	0.0
28	0x00000000	0.0
29	0x00000000	0.0
30	0x00000000	0.0
31	0x00000000	0.0
32	0x00000000	0.0
33	0x00000000	0.0
34	0x00000000	0.0
35	0x00000000	0.0
36	0x00000000	0.0
37	0x00000000	0.0
38	0x00000000	0.0
39	0x00000000	0.0
40	0x00000000	0.0
41	0x00000000	0.0
42	0x00000000	0.0
43	0x00000000	0.0
44	0x00000000	0.0
45	0x00000000	0.0
46	0x00000000	0.0
47	0x00000000	0.0
48	0x00000000	0.0
49	0x00000000	0.0
50	0x00000000	0.0
51	0x00000000	0.0
52	0x00000000	0.0
53	0x00000000	0.0
54	0x00000000	0.0
55	0x00000000	0.0
56	0x00000000	0.0
57	0x00000000	0.0
58	0x00000000	0.0
59	0x00000000	0.0
60	0x00000000	0.0
61	0x00000000	0.0
62	0x00000000	0.0
63	0x00000000	0.0
64	0x00000000	0.0
65	0x00000000	0.0
66	0x00000000	0.0
67	0x00000000	0.0
68	0x00000000	0.0
69	0x00000000	0.0
70	0x00000000	0.0
71	0x00000000	0.0
72	0x00000000	0.0
73	0x00000000	0.0
74	0x00000000	0.0
75	0x00000000	0.0
76	0x00000000	0.0
77	0x00000000	0.0
78	0x00000000	0.0
79	0x00000000	0.0
80	0x00000000	0.0
81	0x00000000	0.0
82	0x00000000	0.0
83	0x00000000	0.0
84	0x00000000	0.0
85	0x00000000	0.0
86	0x00000000	0.0
87	0x00000000	0.0
88	0x00000000	0.0
89	0x00000000	0.0
90	0x00000000	0.0
91	0x00000000	0.0
92	0x00000000	0.0
93	0x00000000	0.0
94	0x00000000	0.0
95	0x00000000	0.0
96	0x00000000	0.0
97	0x00000000	0.0
98	0x00000000	0.0
99	0x00000000	0.0

fc_x2ah.weight f4 [100, 33]
0	0xbcedbf0a	-0.029021759
1	0x3d00449b	0.031315427
2	0x3dbb1b93	0.09136119
3	0x3e118986	0.14212617
4	0x3e356d7a	0.17717543
5	0x3e46e939	0.19424905
6	0x3e47b113	0.19501142
7	0x3e3b647e	0.18300053
8	0x3e2595ca	0.16170421
9	0x3e0920dc	0.13391441
10	0x3dd02b65	0.10164527
11	0x3d87d94e	0.066332445
12	0x3cf0aa24	0.029378004
13	0xbbed2e93	-0.007238218
14	0xbd26b699	-0.040701482
15	0xbd8aa5ec	-0.06769928
16	0xbdaea4f4	-0.08527556
17	0xbdbc2065	-0.09185866
18	0xbdb42c89	-0.08797557
19	0xbd9c234e	-0.07623921
20	0xbd78ac02	-0.060710914
21	0xbd3cbbb9	-0.046077464
22	0xbd15bd14	-0.036557272
23	0xbd101f22	-0.03518594
24	0xbd3527fc	-0.044227585
25	0xbd81a032	-0.06329383
26	0xbdb582c0	-0.08862829
27	0xbde8651d	-0.11347411
28	0xbe056980	-0.13028526
29	0xbe07c126	-0.13257274
30	0xbdedf7e3	-0.11619546
31	0xbda4edf0	-0.080531955
32	0x3da5e899	0.08101005
33	0x3d8a7f8f	0.06762611
34	0x3dbdd4cd	0.09269104
35	0x3de295af	0.11063706
36	0x3df546d3	0.11976399
37	0x3df42f2b	0.11923059
38	0x3ddf8fc9	0.10916097
39	0x3db9d422	0.09073664
40	0x3d8780a8	0.06616336
41	0x3d1d8d9f	0.03846514
42	0x3c363d06	0.011122948
43	0xbc4bae57	-0.012431703
44	0xbcf0ef4b	-0.029410979
45	0xbd1c80b5	-0.038208682
46	0xbd1e872e	-0.038703136
47	0xbd03ff13	-0.03222568
48	0xbcade4c3	-0.021227246
49	0xbc0f705d	-0.008754817
50	0x3b0af432	0.002120268
51	0x3c101d89	0.008796104
52	0x3c1b794e	0.0094893705
53	0x3b62c422	0.0034601768
54	0xbc109d13	-0.008826512
55	0xbcd1c212	-0.025605235
56	0xbd33cf82	-0.043899067
57	0xbd75bd13	-0.05999477
58	0xbd8ffef5	-0.07031051
59	0xbd93ebb8	-0.07222694
60	0xbd843019	-0.064544864
61	0xbd42e581	-0.047582153
62	0xbcbc5460	-0.022989452
63	0x3bd7c0e7	0.006584275
64	0x3d1b44f8	0.03790757
65	0x3ccad13f	0.02475798
66	0xbcd464f6	-0.025927048
67	0xbd29dae2	-0.04146851
68	0xbd589dd8	-0.052884907
69	0xbd68ea99	-0.056864355
70	0xbd545a73	-0.05184407
71	0xbd1da204	-0.03848459
72	0xbc9ea96d	-0.019367898
73	0x3aedff65	0.0018157779
74	0x3cad6cc6	0.021170031
75	0x3d10bd0b	0.035336535
76	0x3d2c0603	0.04199792
77	0x3d24dbfc	0.040248856
78	0x3cfc9b94	0.030835904
79	0x3c83bbf1	0.016080828
80	0xba26f88a	-0.00063694327
81	0xbc8071ce	-0.015679266
82	0xbcd4e10d	-0.025986219
83	0xbcf43771	-0.029811593
84	0xbcde9745	-0.02717174
85	0xbca1e5ff	-0.019762991
86	0xbc28892e	-0.010286612
87	0xbabcc19b	-0.0014400961
88	0x3ba3fa1e	0.0050041815
89	0x3c0df43f	0.00866419
90	0x3c29dccd	0.010367584
91	0x3c3b17aa	0.011419216
92	0x3c4fca22	0.01268247
93	0x3c644dd5	0.013934572
94	0x3c629359	0.013829076
95	0x3c2c03fa	0.010498995
96	0x3b255fd4	0.002523412
97	0xbc26d06b	-0.010181527
98	0xbd8cb961	-0.06871296
99	0xbe033bcb	-0.12815778
100	0xbe0d5177	-0.13800608
101	0xbe12f6e4	-0.14351994
102	0xbe0a8023	-0.13525443
103	0xbddbd84f	-0.10734617
104	0xbd72c7e5	-0.059272666
105	0x3b7a7d4a	0.003822165
106	0x3d947bb5	0.07250158
107	0x3e0b0364	0.13575512
108	0x3e3c9e93	0.18419866
109	0x3e59d365	0.21272047
110	0x3e631fbc	0.22180074
111	0x3e5e38a9	0.21701302
112	0x3e5395e5	0.20662649
113	0x3e4aee3f	0.19817446
114	0x3e486dfb	0.19573204
115	0x3e4b5609	0.19857039
116	0x3e4e0e86	0.20122728
117	0x3e4887ee	0.19583103
118	0x3e33618b	0.17517678
119	0x3e0aafd0	0.1354363
120	0x3d9f6363	0.077826284
121	0x3c0e40df	0.008682459
122	0xbd7e5d2c	-0.062100574
123	0xbdfd52cd	-0.123693086
124	0xbe2b34e2	-0.16719392
125	0xbe407912	-0.18796185
126	0xbe3f6fe4	-0.18695027
127	0xbe2ea95c	-0.17056793
128	0xbe184931	-0.1487167
129	0xbe0637dd	-0.13107248
130	0xbdfda0ce	-0.12384187
131	0xbc88896b	-0.016667088
132	0x3cce5588	0.025187269
133	0x3bfba5ea	0.0076796906
134	0xbbeb916e	-0.0071889674
135	0xbc8c0748	-0.017093316
136	0xbcb2e200	-0.02183628
137	0xbcbe66f3	-0.02324245
138	0xbcc4b301	-0.024011137
139	0xbcd5b032	-0.026084993
140	0xbcf34e7f	-0.029700516
141	0xbd08fb5d	-0.033442844
142	0xbd0d7de3	-0.034543883
143	0xbcf1e5af	-0.029528467
144	0xbc7eb5d1	-0.015546278
145	0x3c032517	0.008004448
146	0x3d1da848	0.038490564
147	0x3d9004b1	0.07032145
148	0x3dc5776e	0.0964192
149	0x3de28504	0.11060527
150	0x3de0760e	0.10960017
151	0x3dc0e360	0.09418368
152	0x3d8d38d3	0.06895604
153	0x3d2744f3	0.04083724
154	0x3c8a7210	0.016900092
155	0x3b1e4fef	0.002415653
156	0xb9b8fd07	-0.00035283735
157	0x3bf6fef6	0.007537718
158	0x3cb6a951	0.022297533
159	0x3d1e4fb9	0.03865025
160	0x3d5267f1	0.051368657
161	0x3d6825eb	0.056676786
162	0x3d5985ab	0.05310599
163	0x3d2a8917	0.041634645
164	0xbcab231a	-0.020890761
165	0x3d191a55	0.037378628
166	0x3cfd3041	0.030906798
167	0x3cb546b6	0.022128444
168	0x3c4d26da	0.01252147
169	0x3b693e59	0.003559014
170	0xbb69e8b4	-0.003569168
171	0xbc05b6b4	-0.008161236
172	0xbc2572db	-0.010098184
173	0xbc20a365	-0.009804581
174	0xbc044379	-0.008072727
175	0xbbbdeda0	-0.0057961494
176	0xbb72f1f5	-0.0037070487
177	0xbb10e8c4	-0.0022111395
178	0xbab2c9b4	-0.0013640434
179	0xba80c69d	-0.0009824816
180	0xba5d6b2e	-0.0008446452
181	0xba694f0a	-0.00089000224
182	0xbaaaf1d6	-0.0013042043
183	0xbb1e8c3c	-0.0024192473
184	0xbb924852	-0.0044641877
185	0xbbef2e3a	-0.007299212
186	0xbc288df4	-0.0102877505
187	0xbc4b0d24	-0.01239327
188	0xbc4c5337	-0.012471012
189	0xbc1df474	-0.009640802
190	0xbb6ca842	-0.0036111032
191	0x3ba8c234	0.005150104
192	0x3c7d4626	0.015458619
193	0x3cd2487c	0.025669329
194	0x3d0b8474	0.034061864
195	0x3d20af3c	0.039229617
196	0x3d2552de	0.04036223
197	0xbd4d9f85	-0.050200958
198	0x3e604e0b	0.21904771
199	0x3e585aa5	0.21128328
200	0x3e3ef2be	0.18647286
201	0x3e17a3d8	0.14808595
202	0x3dcd4d84	0.100245506
203	0x3d41e1b4	0.047334388
204	0xbbbfa38b	-0.0058483533
205	0xbd5d74fd	-0.054066647
206	0xbdbce6d2	-0.09223713
207	0xbdeebad8	-0.11656731
208	0xbe00b71b	-0.12569849
209	0xbdf80d64	-0.12111929
210	0xbdd9fb10	-0.106435895
211	0xbdb054c5	-0.086099185
212	0xbd84cabf	-0.06483983
213	0xbd411a4e	-0.047144227
214	0xbd12a855	-0.035805065
215	0xbd00e706	-0.03147032
216	0xbd109b99	-0.03530464
217	0xbd490533	-0.049077224
218	0xbd935ea0	-0.07195783
219	0xbdc9bd6e	-0.09850584
220	0xbdf70002	-0.12060548
221	0xbe05e704	-0.13076407
222	0xbdfd9b07	-0.12383085
223	0xbdc7aad0	-0.09749377
224	0xbd58add6	-0.052900158
225	0x3ba57a5d	0.005049987
226	0x3d8c41d9	0.06848497
227	0x3e0371d6	0.12836394
228	0x3e34d29d	0.17658468
229	0x3e54953a	0.2076005
230	0x3e5f61a0	0.21814585
231	0xbd089547	-0.033345487
232	0xbd47a9d7	-0.048745956
233	0xbd8cc20f	-0.06872951
234	0xbdb6b6a4	-0.08921555
235	0xbdd6aa5a	-0.10481711
236	0xbde15e8d	-0.11004362
237	0xbdcf15ed	-0.10111604
238	0xbd9e0834	-0.07716408
239	0xbd251eb3	-0.04031248
240	0x3ba8bd17	0.0051494944
241	0x3d5d10a2	0.05397094
242	0x3dcecd80	0.1009779
243	0x3e11143b	0.14167874
244	0x3e309c0d	0.17247029
245	0x3e434377	0.19068705
246	0x3e475fc1	0.19470121
247	0x3e3c6f77	0.18401895
248	0x3e2321a6	0.15930805
249	0x3dfae407	0.12250524
250	0x3d9de5ed	0.077098705
251	0x3ce73786	0.028224718
252	0xbc922ecb	-0.017844578
253	0xbd611621	-0.054952744
254	0xbda12dff	-0.07870101
255	0xbdb3bdf7	-0.08776467

fc_x2ah.bias f4 [100]
0	0xbdac53ce	-0.08414422
1	0xbd7e5812	-0.06209571
2	0xbd3d1988	-0.046166927
3	0xbc23ae81	-0.009990335
4	0xbd0c81a1	-0.03430331
5	0xbdce58b7	-0.10075515
6	0xbcf51176	-0.029915553
7	0xbd83ad3f	-0.064295284
8	0xbd4018fd	-0.04689883
9	0xbd4e8d72	-0.05042786
10	0xba49afa0	-0.00076937117
11	0xbd84f394	-0.06491771
12	0xbbf10914	-0.0073558185
13	0xbd3c6247	-0.045992162
14	0xbd83c7d0	-0.064345956
15	0xbcf2e95a	-0.029652286
16	0xbd6cb975	-0.057794053
17	0xbe07f1fa	-0.132759
18	0xbd8b8c2c	-0.06813845
19	0xbd99d199	-0.07510681
20	0xbd1fe5af	-0.039037403
21	0xbd918974	-0.07106295
22	0xbd0767f5	-0.033058126
23	0xbce373b8	-0.02776514
24	0xbab44326	-0.0013752922
25	0xbdc4b317	-0.09604471
26	0xbd38afb4	-0.04508944
27	0xbd020a44	-0.03174807
28	0x3ef9c72a	0.48784763
29	0xbc7583de	-0.014985053
30	0xbd01129a	-0.03151188
31	0xbd23fd3e	-0.040036432
32	0xbd04dea2	-0.03243888
33	0xbdfe23cd	-0.12409172
34	0xbd44b270	-0.048021734
35	0xbcdc937d	-0.026925797
36	0xb7591ef3	-1.2941414e-05
37	0xbbc03236	-0.0058653606
38	0xbe0f793d	-0.14011092
39	0xbcd32531	-0.02577457
40	0xbd01c68e	-0.031683497
41	0x3c118fd3	0.008884388
42	0xbd57afee	-0.052658014
43	0xbd50ac3f	-0.050945517
44	0x3e3106f1	0.17287804
45	0xbd019ffe	-0.03164672
46	0xbd72172f	-0.05910414
47	0x3d86b4aa	0.06577428
48	0xbd18b4b7	-0.037281718
49	0x3efe18b9	0.49628237
50	0xbd087e11	-0.03332335
51	0xbdb42955	-0.08796946
52	0xbd16d8fc	-0.036828026
53	0xbd6327d1	-0.055457894
54	0xbcfece14	-0.031104125
55	0xbd10cccc	-0.03535156
56	0xbcbcc62c	-0.023043714
57	0xb92f7f9c	-0.00016736839
58	0xbd1f0e7d	-0.038832176
59	0xbb44399f	-0.0029941571
60	0xbcb653b0	-0.022256702
61	0x39eade6d	0.00044797678
62	0xbdc5d27b	-0.096592866
63	0xbbddd5c8	-0.0067698695
64	0xbd15f35b	-0.036609035
65	0xbcb96c14	-0.022634543
66	0xbb41f89c	-0.0029597646
67	0xbca633fe	-0.020288464
68	0xbd01cfba	-0.031692244
69	0xbd9ddac1	-0.077077396
70	0xbd7ae892	-0.061256953
71	0xbd9975e5	-0.0749319
72	0xbd8e016e	-0.069338664
73	0xbbb68555	-0.0055700936
74	0xbd58b5f1	-0.052907888
75	0xbda20beb	-0.079124294
76	0xbbc2b523	-0.0059420033
77	0xbce3f801	-0.027828218
78	0xbd618ff7	-0.055068936
79	0xbc3889a6	-0.011263287
80	0xbabaccb0	-0.0014251675
81	0xbcfc6035	-0.030807594
82	0xbcbe2fa9	-0.023216086
83	0xbcda0bd8	-0.026616976
84	0xbde83077	-0.11337369
85	0xbcb8f131	-0.022575947
86	0xbd9ad00b	-0.07559212
87	0xbc9486a6	-0.018130612
88	0xbd6451c4	-0.05574204
89	0xbc80b0a8	-0.015709236
90	0xbd8aeb26	-0.06783132
91	0xbb8ac298	-0.004234623
92	0xbd944f61	-0.07241703
93	0xbcdd4fdf	-0.027015625
94	0x3e441a3e	0.19150636
95	0xbd49a8be	-0.04923319
96	0xbcea098b	-0.028569004
97	0xbd932af9	-0.07185931
98	0xbcaa4e79	-0.020789372
99	0x3d99064e	0.07471906

fc_h2ah.weight f4 [100, 100]
0	0x3eb464a6	0.3523304
1	0xbbbe58dd	-0.005808933
2	0xbce674b7	-0.028131826
3	0xbc3b4f22	-0.011432441
4	0x3c994747	0.018710745
5	0x3d6d1ae3	0.05788697
6	0x3c3c3bc2	0.011488857
7	0x3d92442b	0.07141908
8	0x3c5f2b5a	0.013621176
9	0xbab94228	-0.0014134096
10	0xbc24f9b5	-0.0100693
11	0xbca6594f	-0.020306258
12	0x3c35dd4b	0.011100124
13	0x3d81fbe8	0.063468754
14	0xbb14fc22	-0.002273329
15	0xbde44715	-0.1114637
16	0x3d9f0753	0.07765069
17	0xbd013f16	-0.031554304
18	0x3d9e3032	0.07724036
19	0x3d6da246	0.058016084
20	0x3c31a91a	0.01084354
21	0xbb0a6456	-0.0021116934
22	0x3dbc614a	0.09198244
23	0xbd11a4ce	-0.03555756
24	0xbe624edf	-0.221004
25	0x3d312f0c	0.043257758
26	0xbd8000b8	-0.06250137
27	0x3cee949c	0.029123597
28	0xbe585dc4	-0.21129519
29	0x3dc103e5	0.09424571
30	0xbd63ac8e	-0.055584483
31	0x3d7ee467	0.06222954
32	0xbc4925c2	-0.012277069
33	0x3b2fc620	0.0026820973
34	0x3ddf27c5	0.10896257
35	0xbd2b618a	-0.041841067
36	0xbb118a18	-0.0022207554
37	0x3cf31a59	0.02967565
38	0x3d834407	0.064094596
39	0x3bb3efa8	0.0054912157
40	0x3dfdcc5f	0.12392496
41	0xbda5f684	-0.0810366
42	0xbcb197dd	-0.02167886
43	0xbb98cb33	-0.004662895
44	0x3dd70e9b	0.10500833
45	0x3d77bb48	0.06048134
46	0xbc648b4d	-0.0139492275
47	0xbb93fd37	-0.0045162695
48	0xbd4633be	-0.04838919
49	0xbe65c3ad	-0.22437926
50	0x3d595566	0.053059958
51	0xbcd8c2cd	-0.026460076
52	0x3c090a96	0.00836434
53	0x3d406cda	0.04697881
54	0x3d5e47ae	0.054267578
55	0xbc6bc053	-0.014389115
56	0x3d37c710	0.044867575
57	0xbd7c4459	-0.06158862
58	0xbe2609bd	-0.16214652
59	0x3d3a183b	0.045433264
60	0x3d2f6d98	0.042829126
61	0x3d0bccbf	0.034130808
62	0xbe1cef1b	-0.15325586
63	0x3d2e6374	0.042575315
64	0x3d811ded	0.06304536
65	0x3dbd3565	0.092387
66	0xbc39a90d	-0.011331809
67	0xbe32780a	-0.17428604
68	0x3e7eaffb	0.24871819
69	0x3d812af0	0.06307018
70	0x3cf65e93	0.030074393
71	0xbd402b32	-0.046916194
72	0x3bf969f1	0.007611506
73	0xbd827561	-0.063700445
74	0x3c9ab776	0.01888631
75	0x3d5b04f6	0.053471528
76	0x3d497e09	0.049192462
77	0x3cd74f09	0.026282804
78	0xbe288d2a	-0.164601
79	0x3ce6fc3e	0.02819645
80	0xbd8feb5d	-0.07027314
81	0x3e3233b6	0.17402539
82	0x3d23b9ae	0.039972
83	0xbcd3f34f	-0.025872855
84	0x3e5e5cc5	0.21715076
85	0x3d166f48	0.03672722
86	0xbe5bc4fb	-0.21461861
87	0x3e08cc35	0.13359149
88	0xbb874176	-0.0041276766
89	0xbc774f19	-0.015094542
90	0xbc90bd88	-0.0176685
91	0x3d967d56	0.07348125
92	0xbbd2913c	-0.0064260047
93	0xbd944a85	-0.07240776
94	0xbe15a260	-0.14612722
95	0x3d8aa610	0.06769955
96	0x3e07343e	0.13203523
97	0x3ca20d94	0.019781865
98	0xbdda4766	-0.106581494
99	0x3be74f54	0.007059017
100	0xbd9ac9f2	-0.07558049
101	0x3e8d602f	0.27612445
102	0x3ddf8a37	0.10915034
103	0xbd46928a	-0.048479594
104	0xbdea6d01	-0.11446572
105	0x3db0c525	0.08631352
106	0x3cb17b69	0.021665292
107	0x3c3baa74	0.011454213
108	0x3c1d21b4	0.009590555
109	0x3da84074	0.082154185
110	0xbc013826	-0.007886922
111	0x3e28023b	0.16407101
112	0xbcd0fbfb	-0.025510779
113	0x3e088b11	0.133343
114	0x3d451ef5	0.048125226
115	0x3d86a73b	0.065748654
116	0x3cad16fc	0.021129124
117	0x3c49d570	0.012318954
118	0x3d92dbf7	0.07170861
119	0x3d9c967a	0.076458886
120	0x3d0420fa	0.03225801
121	0x3df98170	0.12182891
122	0x3d1fc53a	0.03900645
123	0xbe028312	-0.12745312
124	0x3c9014f4	0.017588116
125	0xbc4f0ee7	-0.01263783
126	0x3a71b6ce	0.00092206604
127	0x3da421ea	0.08014281
128	0x3ccad996	0.024761956
129	0x3d1c1196	0.03810271
130	0xbc1050c5	-0.008808319
131	0xbd0c1b90	-0.034205973
132	0xbd9c8830	-0.07643163
133	0x3de45bd5	0.11150328
134	0x3dbf1bfa	0.09331508
135	0xbcf2c27d	-0.029633755
136	0xbc26e641	-0.010186733
137	0xbd96f7bc	-0.0737147
138	0xbcc96d9b	-0.024588397
139	0x3d0dd218	0.03462419
140	0xbd045011	-0.03230292
141	0xbbeb0a93	-0.0071728914
142	0x3d3ea09e	0.046539895
143	0x3c8580d0	0.016296774
144	0xbdab02ec	-0.08350167
145	0x3dd88517	0.1057226
146	0x3b0be0ef	0.0021343788
147	0xbd6cf74c	-0.05785303
148	0x3c76e861	0.015070052
149	0x3ca0f13a	0.019646276
150	0xbd9e975f	-0.077437155
151	0x3e04d008	0.12969983
152	0xbb96f773	-0.004607135
153	0x3b6d4a44	0.0036207596
154	0xbd0dd069	-0.034622584
155	0xbc32eb41	-0.010920347
156	0xbdac1f27	-0.08404379
157	0xba3b2311	-0.0007138709
158	0x3c30c3bc	0.010788854
159	0x3c0b5294	0.008503575
160	0xba8a0c32	-0.0010532199
161	0xba1e6886	-0.0006042797
162	0x3cf6a7aa	0.030109245
163	0x3b42680e	0.0029664072
164	0xbc7c5c58	-0.015402876
165	0xbcb6d20f	-0.02231696
166	0xbd1e7c83	-0.038692962
167	0xbc155d39	-0.009116464
168	0x3d8052f4	0.06265822
169	0xbd60b17e	-0.05485677
170	0x3decdb4c	0.11565265
171	0x3e3b9567	0.18318711
172	0x3d60ed1e	0.054913633
173	0xbb1913b4	-0.0023357691
174	0x3d10afb9	0.035323832
175	0x3dd14107	0.10217481
176	0xbd407f37	-0.04699632
177	0x3e1458b4	0.14486963
178	0x3e07ea83	0.13273053
179	0xbdb4011a	-0.087892726
180	0x3ca0ca88	0.019627824
181	0x3db2753f	0.08713769
182	0x3c998e50	0.018744618
183	0x3cd1e650	0.025622517
184	0xbc8547f0	-0.016269654
185	0xbe0d4317	-0.13795124
186	0x3d7f44c7	0.06232145
187	0x3c71ace8	0.014750697
188	0x3d8113da	0.063026145
189	0x3d0d9715	0.03456791
190	0x3e21db9e	0.15806434
191	0xbcf77081	-0.030205013
192	0x3def9cad	0.116998054
193	0xbd279150	-0.040910065
194	0x3dc39d5b	0.095514975
195	0x3badd6f6	0.0053051664
196	0x3d7376ae	0.059439354
197	0x3c8633ca	0.016382117
198	0xbd181546	-0.037129663
199	0xbddc3e48	-0.10754067
200	0xbaf8b1d8	-0.00189739
201	0x3d4f5844	0.050621286
202	0x3e9f3190	0.310925
203	0xbd27de86	-0.0409837
204	0x3d203b50	0.039119065
205	0x3dd86291	0.10565675
206	0xbce9f6ea	-0.02856012
207	0xbb8d61bc	-0.0043146294
208	0xbd88a330	-0.066717505
209	0x3d4046ce	0.046942525
210	0xbb798826	-0.0038075536
211	0x3d8b3c35	0.06798593
212	0xbbec4b00	-0.007211089
213	0x3990562e	0.0002753003
214	0x3bbd3152	0.0057737017
215	0x3cc72018	0.024307296
216	0x3daa3128	0.08310157
217	0x3d9aef6e	0.07565199
218	0x3dee9ac7	0.11650615
219	0xbd0643b1	-0.0327794
220	0x3d27a693	0.040930342
221	0x3e0273e8	0.12739527
222	0x3c56107a	0.013065452
223	0x3da6a863	0.08137586
224	0x3cfc8de1	0.030829372
225	0xbe20eb52	-0.15714768
226	0x3cda04b1	0.026613565
227	0x3c933ac3	0.017972356
228	0x3d4d65b6	0.050145827
229	0xbd1c3c58	-0.038143486
230	0x3d80cee2	0.0628946
231	0xbc53c031	-0.01292424
232	0xbdb5128f	-0.088414304
233	0x3daeee10	0.085415006
234	0x3cc7ff97	0.024413867
235	0x3e042d23	0.12907843
236	0x3c804c89	0.015661495
237	0xbc90946c	-0.017648898
238	0xbcdccb64	-0.026952453
239	0xbcd44562	-0.02591199
240	0x3d528858	0.05139956
241	0xbdab0f0e	-0.08352481
242	0x3dcc89a4	0.0998719
243	0xbcd2db02	-0.025739197
244	0xbd6ee975	-0.05832811
245	0x3b826933	0.003979826
246	0x3d27422f	0.040834602
247	0xbc657072	-0.01400386
248	0x3d929491	0.07157243
249	0xbc352801	-0.011056901
250	0xbd8013e5	-0.062537946
251	0x3d0fd82d	0.03511827
252	0x3bff9e4e	0.007800854
253	0x3cec9df2	0.028883908
254	0xbe2a4176	-0.16626534
255	0x3e381419	0.17976417

fc_h2y.weight f4 [4, 100]
0	0x3b0b0c54	0.0021217065
1	0x3d8945da	0.06702776
2	0x3d231f22	0.039824612
3	0xba7a89f8	-0.0009557302
4	0xbd8c9488	-0.068642676
5	0x3d837e4b	0.06420573
6	0x39a5d946	0.00031633134
7	0xbaaae866	-0.0013039231
8	0x3b6ff9c8	0.0036617387
9	0xba0bf56a	-0.0005338999
10	0x3a743418	0.0009315624
11	0x3d8a6e39	0.067593046
12	0xbaa8149f	-0.0012823528
13	0x3d8e5516	0.069498226
14	0x3c5ab41d	0.013348606
15	0xbae4e4b4	-0.0017463178
16	0x3d2a4aa5	0.041575093
17	0xbaeec098	-0.0018215356
18	0x3d14b836	0.03630849
19	0x3aa36d2b	0.0012468448
20	0xb949231e	-0.00019181936
21	0x3d89f8b1	0.06736887
22	0xbab39069	-0.0013699654
23	0xbd7e2099	-0.062042806
24	0xb9e1665c	-0.00042991608
25	0xba9d4003	-0.0011997226
26	0x3b10799f	0.0022045148
27	0xbac8bb25	-0.0015314562
28	0x3a16a54f	0.0005746679
29	0xba5e1429	-0.0008471632
30	0xbc8bddc4	-0.01707352
31	0xbd6cb956	-0.057793938
32	0xbd91082d	-0.070816375
33	0xbb47991a	-0.0030456246
34	0xbb012d12	-0.0019710702
35	0xba809df7	-0.0009812702
36	0xbb22ce8f	-0.0024842357
37	0xbd7fae64	-0.06242217
38	0x3c927464	0.017877765
39	0xbb4111f9	-0.0029460175
40	0xba0e562a	-0.00054297096
41	0xba00145a	-0.0004885845
42	0xba94c0a7	-0.0011348919
43	0x3d276a0a	0.04087261
44	0x3a034518	0.0005007549
45	0x3a69b0ef	0.000891461
46	0xba737adb	-0.0009288021
47	0xbd841724	-0.06449726
48	0xbad7f035	-0.0016474786
49	0xbb4bc9c8	-0.0031095613
50	0xbd5664b3	-0.052342128
51	0x3d891324	0.06693104
52	0xbad0f9fb	-0.0015943641
53	0xbd3825b1	-0.04495782
54	0xbd01f58e	-0.03172832
55	0x3d23622d	0.03988855
56	0x3c88e986	0.016712915
57	0xba335599	-0.0006841063
58	0xba1090c0	-0.00055147335
59	0x3c12cb02	0.008959534
60	0xbc65219c	-0.013985064
61	0xb9ffec3e	-0.00048813404
62	0xbad6e69b	-0.001639563
63	0xba85b59c	-0.0010201219
64	0x3c3af7a5	0.011411582
65	0x3d636e2b	0.055524986
66	0x3b45df89	0.0030193052
67	0x3b3a97ef	0.0028471907
68	0xba467e00	-0.0007571876
69	0xba125cbb	-0.0005583276
70	0x3d8e0944	0.06935361
71	0x3d5bfd5b	0.053708415
72	0x3d2abe23	0.041685235
73	0xb9e4a2d0	-0.00043608854
74	0x3cb30143	0.021851188
75	0x3d866670	0.06562507
76	0xbb04e047	-0.0020275281
77	0x3d91b4ad	0.07114539
78	0xba972528	-0.0011531459
79	0xbd876cb8	-0.06612533
80	0xba86280e	-0.0010235326
81	0xbad5e72c	-0.0016319505
82	0x3c74b8ef	0.01493667
83	0x3d7fb192	0.062425204
84	0x3ac1e8d5	0.0014794121
85	0xbd57782d	-0.052604843
86	0x36daf680	6.5256027e-06
87	0xbab27487	-0.001361505
88	0x3c0f0646	0.008729523
89	0xbd0b1e50	-0.033964455
90	0x3d890cdf	0.06691908
91	0xbc099ab6	-0.008398702
92	0x3d82a38d	0.06378851
93	0xb906543c	-0.00012810616
94	0xbb54e01a	-0.0032482208
95	0xbd87c06a	-0.06628497
96	0xbb72cda7	-0.0037048848
97	0x3d7344f4	0.05939193
98	0x391524ec	0.00014223502
99	0xbd33b60e	-0.043874793
100	0x37babfbb	2.226221e-05
101	0xbc2ac08e	-0.010421885
102	0xbd752594	-0.05985029
103	0xba86c1f4	-0.0010281191
104	0xbcba24da	-0.02272265
105	0xbcf10a15	-0.029423753
106	0x3aeba3c8	0.0017977888
107	0xba7220fb	-0.0009236482
108	0x3d942ed9	0.07235498
109	0x388d2aac	6.731352e-05
110	0x3ab80941	0.0014040844
111	0xbbe15c51	-0.00687746
112	0x39d218ce	0.00040072802
113	0xbc61d091	-0.013782636
114	0x3d8c7259	0.068577476
115	0xba88ba0c	-0.0010431423
116	0xbd75c2fb	-0.0600004
117	0xb7efa148	-2.8566123e-05
118	0xbd6df975	-0.05809923
119	0x3b1ad4a0	0.002362527
120	0xba7ecca4	-0.0009719825
121	0xbd2b92b4	-0.041887954
122	0xba5228df	-0.00080169545
123	0xbcd7e321	-0.02635342
124	0xbad9def0	-0.0016622227
125	0x3a913692	0.0011078885
126	0xba2a680f	-0.0006500491
127	0xb97b678f	-0.00023975804
128	0x3a8d17df	0.001076456
129	0xbaf4efc4	-0.0018687178
130	0xbd8fd3d4	-0.07022825
131	0xbd5e0d69	-0.054212008
132	0x3b8f6f4a	0.0043772804
133	0xba3b7640	-0.00071511045
134	0xba293be8	-0.0006455765
135	0xbad85193	-0.0016503803
136	0x3aa8019f	0.0012817866
137	0xbd1a507e	-0.03767442
138	0x3d846916	0.06465356
139	0x3b107f8a	0.0022048675
140	0x3960afa3	0.00021427734
141	0xbb1252fe	-0.00223273
142	0xbab3205d	-0.0013666261
143	0x3d75e66b	0.060034197
144	0xb90ff356	-0.00013728192
145	0x39e663da	0.00043943414
146	0xbb0e92d0	-0.0021754988
147	0xbd0fb75b	-0.03508697
148	0xbbe18ec5	-0.0068834745
149	0xbaabce00	-0.0013107657
150	0x3d45dd0a	0.048306502
151	0xba6fc45b	-0.0009146386
152	0xbaa034eb	-0.0012222802
153	0xbd735cb4	-0.05941458
154	0x3d92333d	0.07138679
155	0xbd78e75c	-0.060767516
156	0x3d7b5ae6	0.061365984
157	0xba926704	-0.0011169617
158	0xbad49d7a	-0.0016221248
159	0xbda158f4	-0.078782946
160	0xbd901200	-0.07034683
161	0xbad803d4	-0.0016480633
162	0x3ae12967	0.0017178477
163	0xbb29a6a5	-0.0025886681
164	0x3d88c8cf	0.06678926
165	0x3d5f13f3	0.054462384
166	0x3b1a12c8	0.002350973
167	0xba356559	-0.0006919704
168	0xb950861a	-0.00019886383
169	0x3b02b851	0.0019946287
170	0x3c9e4f10	0.01932481
171	0x3d09fd56	0.033688866
172	0x3d6b3bdc	0.057430133
173	0xba03e75e	-0.000503173
174	0xbd9984df	-0.07496046
175	0xbc1ea387	-0.009682543
176	0xbb50a992	-0.0031839353
177	0xbb51ec87	-0.003203185
178	0x3ab22785	0.00135921
179	0x3d22b8c6	0.039726995
180	0xbae1036a	-0.0017167155
181	0xb988f203	-0.00026120254
182	0xbda64ea2	-0.08120467
183	0xbceffe0e	-0.029295947
184	0xb9d675f6	-0.00040905148
185	0x3d3ee096	0.0466009
186	0xba8db4fd	-0.0010811385
187	0xba02fbb3	-0.00049966126
188	0x3d70c45d	0.058781017
189	0x3d8d5d1f	0.06902527
190	0xbc9209f5	-0.017827014
191	0xbd6937db	-0.056938034
192	0x3d027356	0.031848274
193	0x3a71c767	0.00092231337
194	0xbab2107a	-0.0013585233
195	0xbccb84bf	-0.024843572
196	0xbb94211b	-0.004520548
197	0x3d4e2b58	0.050334305
198	0xbafc481a	-0.0019247562
199	0x3d79e484	0.061008945
200	0x3da9e031	0.08294714
201	0x3bb83f0a	0.005622749
202	0x3b85227d	0.004062949
203	0x3b3d391a	0.0028873147
204	0xbb2ef749	-0.0026697686
205	0xbc00c807	-0.00786019
206	0x3c923802	0.017848972
207	0x3cc57dde	0.02410787
208	0x3a8bee6d	0.0010675915
209	0x3d4019df	0.046899673
210	0xbaa0ed3f	-0.0012277736
211	0x3ba91e07	0.0051610502
212	0x39cf0f47	0.000394935
213	0xbb9a9800	-0.004717827
214	0xb9e84a83	-0.00044306004
215	0xbd9c0bf1	-0.07619465
216	0xbbdedcc4	-0.0068012197
217	0xbd97a225	-0.074039735
218	0x3baba106	0.0052377013
219	0xba0e3ece	-0.0005426229
220	0xbc8133d1	-0.015771778
221	0x3b2f6a75	0.0026766334
222	0x3d8ea09a	0.06964226
223	0x3c2e3218	0.0106320605
224	0xbda28f11	-0.07937444
225	0xbaa2bae7	-0.001241532
226	0xbda72c9b	-0.08162805
227	0xbc19ffd4	-0.009399373
228	0xbaca9bde	-0.0015457829
229	0xbd4362ce	-0.04770165
230	0x3aac0744	0.0013124724
231	0x3b1ea868	0.0024209265
232	0xb9f94f06	-0.00047551858
233	0xbd2af98b	-0.04174189
234	0x3da0a9af	0.078448646
235	0xbd707b6c	-0.058711454
236	0x3b305336	0.0026905066
237	0xbad1d624	-0.0016009253
238	0xb8821000	-6.201863e-05
239	0xbca2887f	-0.019840477
240	0x3d921bcd	0.07134209
241	0xbd98731c	-0.0744383
242	0xbd17109d	-0.036881078
243	0xbad69cfe	-0.0016373692
244	0x3a112548	0.00055368664
245	0x3d5bae0c	0.05363278
246	0x3cddb84e	0.027065422
247	0xbb1da9fe	-0.0024057622
248	0x3c9dc971	0.019261094
249	0x37831468	1.562592e-05
250	0x3bad49cb	0.005288338
251	0x3b390516	0.0028231791
252	0xbd5774c9	-0.05260161
253	0x3ada40ba	0.001665137
254	0xba91f73a	-0.0011136301
255	0xb83064fc	-4.205572e-05

fc_h2y.bias f4 [4]
0	0xbe68e648	-0.22744095
1	0x3d2b8672	0.041876264
2	0xbccffd38	-0.025389299
3	0xbe0942ec	-0.13404435
